…
        ...,
        [1., 1., 1.,  ..., 1., 1., 0.],
        [1., 1., 1.,  ..., 1., 1., 1.],
        [1., 1., 1.,  ..., 0., 1., 0.]]), tensor([[0., 0., 1.,  ..., 1., 1., 1.],
        [1., 1., 1.,  ..., 1., 1., 1.],
        [1., 1., 1.,  ..., 1., 1., 1.],
        ...,
        [1., 1., 1.,  ..., 1., 1., 1.],
        [1., 1., 1.,  ..., 1., 1., 1.],
        [1., 1., 1.,  ..., 1., 1., 1.]]))
60
*** TypeError: len() of a 0-d tensor
60
60
60
60
*** IndexError: tuple index out of range
train_loader = <torch.utils.data.dataloader.DataLoader object at 0x7f7f8e3ae100>
model = Bert(
  (embedding_interaction): Embedding(3, 16)
  (embedding_test): Embedding(1539, 16)
  (embedding_question): Embedding(9456, 16)
  (embedding_tag): Embedding(914, 16)
  (comb_proj): Linear(in_features=64, out_features=50, bias=True)
  (encoder): BertModel(
    (embeddings): BertEmbeddings(
      (word_embeddings): Embedding(3, 50, padding_idx=0)
      (position_embeddings): Embedding(60, 50)
      (token_type_embeddings): Embedding(2, 50)
      (LayerNorm): LayerNorm((50,), eps=1e-12, elementwise_affine=True)
      (dropout): Dropout(p=0.1, inplace=False)
    )
    (encoder): BertEncoder(
      (layer): ModuleList(
        (0): BertLayer(
          (attention): BertAttention(
            (self): BertSelfAttention(
              (query): Linear(in_features=50, out_features=50, bias=True)
              (key): Linear(in_features=50, out_features=50, bias=True)
              (value): Linear(in_features=50, out_features=50, bias=True)
              (dropout): Dropout(p=0.1, inplace=False)
            )
            (output): BertSelfOutput(
              (dense): Linear(in_features=50, out_features=50, bias=True)
              (LayerNorm): LayerNorm((50,), eps=1e-12, elementwise_affine=True)
              (dropout): Dropout(p=0.1, inplace=False)
            )
          )
          (intermediate): BertIntermediate(
            (dense): Linear(in_features=50, out_features=3072, bias=True)
            (intermediate_act_fn): GELUActivation()
          )
          (output): BertOutput(
            (dense): Linear(in_features=3072, out_features=50, bias=True)
            (LayerNorm): LayerNorm((50,), eps=1e-12, elementwise_affine=True)
            (dropout): Dropout(p=0.1, inplace=False)
          )
        )
        (1): BertLayer(
          (attention): BertAttention(
            (self): BertSelfAttention(
              (query): Linear(in_features=50, out_features=50, bias=True)
              (key): Linear(in_features=50, out_features=50, bias=True)
              (value): Linear(in_features=50, out_features=50, bias=True)
              (dropout): Dropout(p=0.1, inplace=False)
            )
            (output): BertSelfOutput(
              (dense): Linear(in_features=50, out_features=50, bias=True)
              (LayerNorm): LayerNorm((50,), eps=1e-12, elementwise_affine=True)
              (dropout): Dropout(p=0.1, inplace=False)
            )
          )
          (intermediate): BertIntermediate(
            (dense): Linear(in_features=50, out_features=3072, bias=True)
            (intermediate_act_fn): GELUActivation()
          )
          (output): BertOutput(
            (dense): Linear(in_features=3072, out_features=50, bias=True)
            (LayerNorm): LayerNorm((50,), eps=1e-12, elementwise_affine=True)
            (dropout): Dropout(p=0.1, inplace=False)
          )
        )
        (2): BertLayer(
          (attention): BertAttention(
            (self): BertSelfAttention(
              (query): Linear(in_features=50, out_features=50, bias=True)
              (key): Linear(in_features=50, out_features=50, bias=True)
              (value): Linear(in_features=50, out_features=50, bias=True)
              (dropout): Dropout(p=0.1, inplace=False)
            )
            (output): BertSelfOutput(
              (dense): Linear(in_features=50, out_features=50, bias=True)
              (LayerNorm): LayerNorm((50,), eps=1e-12, elementwise_affine=True)
              (dropout): Dropout(p=0.1, inplace=False)
            )
          )
          (intermediate): BertIntermediate(
            (dense): Linear(in_features=50, out_features=3072, bias=True)
            (intermediate_act_fn): GELUActivation()
          )
          (output): BertOutput(
            (dense): Linear(in_features=3072, out_features=50, bias=True)
            (LayerNorm): LayerNorm((50,), eps=1e-12, elementwise_affine=True)
            (dropout): Dropout(p=0.1, inplace=False)
          )
        )
        (3): BertLayer(
          (attention): BertAttention(
            (self): BertSelfAttention(
              (query): Linear(in_features=50, out_features=50, bias=True)
              (key): Linear(in_features=50, out_features=50, bias=True)
              (value): Linear(in_features=50, out_features=50, bias=True)
              (dropout): Dropout(p=0.1, inplace=False)
            )
            (output): BertSelfOutput(
              (dense): Linear(in_features=50, out_features=50, bias=True)
              (LayerNorm): LayerNorm((50,), eps=1e-12, elementwise_affine=True)
              (dropout): Dropout(p=0.1, inplace=False)
            )
          )
          (intermediate): BertIntermediate(
            (dense): Linear(in_features=50, out_features=3072, bias=True)
            (intermediate_act_fn): GELUActivation()
          )
          (output): BertOutput(
            (dense): Linear(in_features=3072, out_features=50, bias=True)
            (LayerNorm): LayerNorm((50,), eps=1e-12, elementwise_affine=True)
            (dropout): Dropout(p=0.1, inplace=False)
          )
        )
        (4): BertLayer(
          (attention): BertAttention(
            (self): BertSelfAttention(
              (query): Linear(in_features=50, out_features=50, bias=True)
              (key): Linear(in_features=50, out_features=50, bias=True)
              (value): Linear(in_features=50, out_features=50, bias=True)
              (dropout): Dropout(p=0.1, inplace=False)
            )
            (output): BertSelfOutput(
              (dense): Linear(in_features=50, out_features=50, bias=True)
              (LayerNorm): LayerNorm((50,), eps=1e-12, elementwise_affine=True)
              (dropout): Dropout(p=0.1, inplace=False)
            )
          )
          (intermediate): BertIntermediate(
            (dense): Linear(in_features=50, out_features=3072, bias=True)
            (intermediate_act_fn): GELUActivation()
          )
          (output): BertOutput(
            (dense): Linear(in_features=3072, out_features=50, bias=True)
            (LayerNorm): LayerNorm((50,), eps=1e-12, elementwise_affine=True)
            (dropout): Dropout(p=0.1, inplace=False)
          )
        )
      )
    )
    (pooler): BertPooler(
      (dense): Linear(in_features=50, out_features=50, bias=True)
      (activation): Tanh()
    )
  )
  (fc): Linear(in_features=50, out_features=1, bias=True)
  (activation): Sigmoid()
)
optimizer = Adam (
Parameter Group 0
    amsgrad: False
    betas: (0.9, 0.999)
    capturable: False
    differentiable: False
    eps: 1e-08
    foreach: None
    fused: False
    lr: 0.005
    maximize: False
    weight_decay: 0.01
)
scheduler = <torch.optim.lr_scheduler.ReduceLROnPlateau object at 0x7f7fd9a890d0>
args = Nam
…
